…
tabindex="0"></div></div></div></div></div><div style="position: absolute; height: 30px; width: 1px; border-bottom: 0px solid transparent;"></div><div class="CodeMirror-gutters" style="display: none;"></div></div></div></div></div></div><div class="output_wrapper"><div class="out_prompt_overlay prompt" title="click to unscroll output; double click to hide"></div><div class="output output_scroll"><div class="output_area"><div class="run_this_cell"></div><div class="prompt"></div><div class="output_subarea output_text output_stream output_stdout"><pre>Discriminator(
  (conv1): Sequential(
    (0): Conv2d(3, 64, kernel_size=(4, 4), stride=(2, 2), padding=(1, 1), bias=False)
  )
  (conv2): Sequential(
    (0): Conv2d(64, 128, kernel_size=(4, 4), stride=(2, 2), padding=(1, 1), bias=False)
    (1): BatchNorm2d(128, eps=1e-05, momentum=0.1, affine=True, track_running_stats=True)
  )
  (conv3): Sequential(
    (0): Conv2d(128, 256, kernel_size=(4, 4), stride=(2, 2), padding=(1, 1), bias=False)
    (1): BatchNorm2d(256, eps=1e-05, momentum=0.1, affine=True, track_running_stats=True)
  )
  (conv4): Sequential(
    (0): Conv2d(256, 512, kernel_size=(4, 4), stride=(2, 2), padding=(1, 1), bias=False)
    (1): BatchNorm2d(512, eps=1e-05, momentum=0.1, affine=True, track_running_stats=True)
  )
  (fc): Linear(in_features=2048, out_features=1, bias=True)
)

Generator(
  (fc): Linear(in_features=100, out_features=2048, bias=True)
  (deconv1): Sequential(
    (0): ConvTranspose2d(512, 256, kernel_size=(4, 4), stride=(2, 2), padding=(1, 1), bias=False)
    (1): BatchNorm2d(256, eps=1e-05, momentum=0.1, affine=True, track_running_stats=True)
  )
  (deconv2): Sequential(
    (0): ConvTranspose2d(256, 128, kernel_size=(4, 4), stride=(2, 2), padding=(1, 1), bias=False)
    (1): BatchNorm2d(128, eps=1e-05, momentum=0.1, affine=True, track_running_stats=True)
  )
  (deconv3): Sequential(
    (0): ConvTranspose2d(128, 64, kernel_size=(4, 4), stride=(2, 2), padding=(1, 1), bias=False)
    (1): BatchNorm2d(64, eps=1e-05, momentum=0.1, affine=True, track_running_stats=True)
  )
  (deconv4): Sequential(
    (0): ConvTranspose2d(64, 3, kernel_size=(4, 4), stride=(2, 2), padding=(1, 1), bias=False)
  )
)
</pre></div></div></div><div class="btn btn-default output_collapsed" title="click to expand output" style="display: none;">. . .</div></div></div><div class="cell text_cell unselected rendered" tabindex="2"><div class="prompt input_prompt"></div><div class="inner_cell"><div class="ctb_hideshow"><div class="celltoolbar"></
…
